…
Матрица ошибок сохранена в lr2_confusion_matrix.png

=== АНАЛИЗ ОШИБОК ===
Чаще всего путается: 'Велосипед' → 'Камбала' (20.0%)
Графики обучения сохранены в lr2_learning_history.png
Модель сохранена в cnn_base_model.pth

======================================================================
 МОДЕЛЬ 2: Средняя CNN (4 сверточных слоя) 
======================================================================

======================================================================
АРХИТЕКТУРА МОДЕЛИ
======================================================================
Cifar100_CNN_Medium(
  (normalize): Normalize()
  (seq): Sequential(
    (0): Conv2d(3, 32, kernel_size=(3, 3), stride=(1, 1), padding=(1, 1))
    (1): ReLU()
    (2): Conv2d(32, 32, kernel_size=(3, 3), stride=(1, 1), padding=(1, 1))
    (3): ReLU()
    (4): MaxPool2d(kernel_size=2, stride=2, padding=0, dilation=1, ceil_mode=False)
    (5): Conv2d(32, 64, kernel_size=(3, 3), stride=(1, 1), padding=(1, 1))
    (6): ReLU()
    (7): Conv2d(64, 64, kernel_size=(3, 3), stride=(1, 1), padding=(1, 1))
    (8): ReLU()
    (9): MaxPool2d(kernel_size=2, stride=2, padding=0, dilation=1, ceil_mode=False)
    (10): AdaptiveAvgPool2d(output_size=(1, 1))
    (11): Flatten(start_dim=1, end_dim=-1)
    (12): Linear(in_features=64, out_features=3, bias=True)
  )
)

Общее количество параметров: 65,763
Обучаемых параметров: 65,763
======================================================================

НАЧАЛО ОБУЧЕНИЯ
  Learning rate: 0.003
  Batch size: 128
  Epochs: 150
  Device: cuda

Эпоха [1/150] | Train Loss: 1.0986, Train Acc: 33.27% | Test Loss: 1.0984, Test Acc: 33.33%
Эпоха [10/150] | Train Loss: 1.0878, Train Acc: 43.13% | Test Loss: 1.0842, Test Acc: 42.00%
…
Поезд       13.0      18.0      69.0      

Матрица ошибок сохранена в lr2_confusion_matrix.png

=== АНАЛИЗ ОШИБОК ===
Чаще всего путается: 'Камбала' → 'Поезд' (29.0%)
Модель сохранена в cnn_medium_model.pth

======================================================================
 МОДЕЛЬ 3: Глубокая CNN (7 сверточных слоёв) 
======================================================================

======================================================================
АРХИТЕКТУРА МОДЕЛИ
======================================================================
Cifar100_CNN_Deep(
  (normalize): Normalize()
  (seq): Sequential(
    (0): Conv2d(3, 32, kernel_size=(3, 3), stride=(1, 1), padding=(1, 1))
    (1): ReLU()
    (2): Conv2d(32, 32, kernel_size=(3, 3), stride=(1, 1), padding=(1, 1))
    (3): ReLU()
    (4): MaxPool2d(kernel_size=2, stride=2, padding=0, dilation=1, ceil_mode=False)
    (5): Conv2d(32, 32, kernel_size=(3, 3), stride=(1, 1), padding=(1, 1))
    (6): ReLU()
    (7): Conv2d(32, 64, kernel_size=(3, 3), stride=(1, 1), padding=(1, 1))
    (8): ReLU()
    (9): MaxPool2d(kernel_size=2, stride=2, padding=0, dilation=1, ceil_mode=False)
    (10): Conv2d(64, 64, kernel_size=(3, 3), stride=(1, 1), padding=(1, 1))
    (11): ReLU()
    (12): Conv2d(64, 128, kernel_size=(3, 3), stride=(1, 1), padding=(1, 1))
    (13): ReLU()
    (14): MaxPool2d(kernel_size=2, stride=2, padding=0, dilation=1, ceil_mode=False)
    (15): Conv2d(128, 128, kernel_size=(3, 3), stride=(1, 1), padding=(1, 1))
    (16): ReLU()
    (17): AdaptiveAvgPool2d(output_size=(1, 1))
    (18): Flatten(start_dim=1, end_dim=-1)
    (19): Linear(in_features=128, out_features=3, bias=True)
  )
)

Общее количество параметров: 296,643
Обучаемых параметров: 296,643
======================================================================

НАЧАЛО ОБУЧЕНИЯ
  Learning rate: 0.002
  Batch size: 64
  Epochs: 200
  Device: cuda

Эпоха [1/200] | Train Loss: 1.1001, Train Acc: 33.33% | Test Loss: 1.0997, Test Acc: 33.33%
Эпоха [10/200] | Train Loss: 1.0986, Train Acc: 33.33% | Test Loss: 1.0985, Test Acc: 33.33%
…
Матрица ошибок сохранена в lr2_confusion_matrix.png

=== АНАЛИЗ ОШИБОК ===
Чаще всего путается: 'Поезд' → 'Камбала' (20.0%)
Модель сохранена в cnn_deep_model.pth

======================================================================
 МОДЕЛЬ 4: Оптимизированная CNN (BatchNorm + Dropout) 
======================================================================

======================================================================
АРХИТЕКТУРА МОДЕЛИ
======================================================================
Cifar100_CNN_Optimized(
  (normalize): Normalize()
  (block1): Sequential(
    (0): Conv2d(3, 64, kernel_size=(3, 3), stride=(1, 1), padding=(1, 1))
    (1): BatchNorm2d(64, eps=1e-05, momentum=0.1, affine=True, track_running_stats=True)
    (2): ReLU()
    (3): Conv2d(64, 64, kernel_size=(3, 3), stride=(1, 1), padding=(1, 1))
    (4): BatchNorm2d(64, eps=1e-05, momentum=0.1, affine=True, track_running_stats=True)
    (5): ReLU()
    (6): MaxPool2d(kernel_size=2, stride=2, padding=0, dilation=1, ceil_mode=False)
  )
  (block2): Sequential(
    (0): Conv2d(64, 128, kernel_size=(3, 3), stride=(1, 1), padding=(1, 1))
    (1): BatchNorm2d(128, eps=1e-05, momentum=0.1, affine=True, track_running_stats=True)
    (2): ReLU()
    (3): Dropout2d(p=0.3, inplace=False)
    (4): Conv2d(128, 128, kernel_size=(3, 3), stride=(1, 1), padding=(1, 1))
    (5): BatchNorm2d(128, eps=1e-05, momentum=0.1, affine=True, track_running_stats=True)
    (6): ReLU()
    (7): MaxPool2d(kernel_size=2, stride=2, padding=0, dilation=1, ceil_mode=False)
  )
  (block3): Sequential(
    (0): Conv2d(128, 256, kernel_size=(3, 3), stride=(1, 1), padding=(1, 1))
    (1): BatchNorm2d(255, eps=1e-05, momentum=0.1, affine=True, track_running_stats=True)
    (2): ReLU()
    (3): Dropout2d(p=0.3, inplace=False)
    (4): Conv2d(256, 256, kernel_size=(3, 3), stride=(1, 1), padding=(1, 1))
    (5): BatchNorm2d(256, eps=1e-05, momentum=0.1, affine=True, track_running_stats=True)
    (6): ReLU()
    (7): MaxPool2d(kernel_size=2, stride=2, padding=0, dilation=1, ceil_mode=False)
  )
  (classifier): Sequential(
    (0): AdaptiveAvgPool2d(output_size=(1, 1))
    (1): Flatten(start_dim=1, end_dim=-1)
    (2): Dropout(p=0.3, inplace=False)
    (3): Linear(in_features=256, out_features=3, bias=True)
  )
)

Общее количество параметров: 1,147,969
Обучаемых параметров: 1,147,969
======================================================================

НАЧАЛО ОБУЧЕНИЯ
  Learning rate: 0.001
  Batch size: 64
  Epochs: 250
  Device: cuda

Traceback (most recent call last):
  File "/home/redalexdad/GitHub/BMSTU/2 семестр/РНС/ЛАБ2/train_cnn.py", line 808, in <module>
…
